…
[2025-08-22 13:02:23]     differentiable: False
[2025-08-22 13:02:23]     eps: 1e-08
[2025-08-22 13:02:23]     foreach: None
[2025-08-22 13:02:23]     fused: None
[2025-08-22 13:02:23]     lr: 0.0001
[2025-08-22 13:02:23]     maximize: False
[2025-08-22 13:02:23]     weight_decay: 0.01
[2025-08-22 13:02:23] )
[2025-08-22 13:02:23] Join_fusion(
[2025-08-22 13:02:23]   (detection): CDur_fusion(
[2025-08-22 13:02:23]     (gru): GRU(2048, 768, batch_first=True, bidirectional=True)
[2025-08-22 13:02:23]     (fusion): Fusion(
[2025-08-22 13:02:23]       (fuse_layer1): conv1d(
[2025-08-22 13:02:23]         (conv): Conv1d(2048, 8192, kernel_size=(1,), stride=(1,))
[2025-08-22 13:02:23]         (act): ReLU()
[2025-08-22 13:02:23]       )
[2025-08-22 13:02:23]       (fuse_layer2): conv1d(
[2025-08-22 13:02:23]         (conv): Conv1d(2048, 8192, kernel_size=(1,), stride=(1,))
[2025-08-22 13:02:23]         (act): ReLU()
[2025-08-22 13:02:23]       )
[2025-08-22 13:02:23]       (avg_pool): AvgPool1d(kernel_size=(4,), stride=(4,), padding=(0,))
[2025-08-22 13:02:23]     )
[2025-08-22 13:02:23]     (fc): Linear(in_features=1536, out_features=1536, bias=True)
[2025-08-22 13:02:23]     (outputlayer): Linear(in_features=1536, out_features=2, bias=True)
[2025-08-22 13:02:23]   )
[2025-08-22 13:02:23]   (AudioEncoder): Cnn14(
[2025-08-22 13:02:23]     (spectrogram_extractor): Spectrogram(
[2025-08-22 13:02:23]       (stft): STFT(
[2025-08-22 13:02:23]         (conv_real): Conv1d(1, 513, kernel_size=(1024,), stride=(320,), bias=False)
[2025-08-22 13:02:23]         (conv_imag): Conv1d(1, 513, kernel_size=(1024,), stride=(320,), bias=False)
[2025-08-22 13:02:23]       )
[2025-08-22 13:02:23]     )
[2025-08-22 13:02:23]     (logmel_extractor): LogmelFilterBank()
[2025-08-22 13:02:23]     (spec_augmenter): SpecAugmentation(
[2025-08-22 13:02:23]       (time_dropper): DropStripes()
[2025-08-22 13:02:23]       (freq_dropper): DropStripes()
[2025-08-22 13:02:23]     )
[2025-08-22 13:02:23]     (bn0): BatchNorm2d(64, eps=1e-05, momentum=0.1, affine=True, track_running_stats=True)
[2025-08-22 13:02:23]     (conv_block1): ConvBlock(
[2025-08-22 13:02:23]       (conv1): Conv2d(1, 64, kernel_size=(3, 3), stride=(1, 1), padding=(1, 1), bias=False)
[2025-08-22 13:02:23]       (conv2): Conv2d(64, 64, kernel_size=(3, 3), stride=(1, 1), padding=(1, 1), bias=False)
[2025-08-22 13:02:23]       (bn1): BatchNorm2d(64, eps=1e-05, momentum=0.1, affine=True, track_running_stats=True)
[2025-08-22 13:02:23]       (bn2): BatchNorm2d(64, eps=1e-05, momentum=0.1, affine=True, track_running_stats=True)
[2025-08-22 13:02:23]     )
[2025-08-22 13:02:23]     (conv_block2): ConvBlock(
[2025-08-22 13:02:23]       (conv1): Conv2d(64, 128, kernel_size=(3, 3), stride=(1, 1), padding=(1, 1), bias=False)
[2025-08-22 13:02:23]       (conv2): Conv2d(128, 128, kernel_size=(3, 3), stride=(1, 1), padding=(1, 1), bias=False)
[2025-08-22 13:02:23]       (bn1): BatchNorm2d(128, eps=1e-05, momentum=0.1, affine=True, track_running_stats=True)
[2025-08-22 13:02:23]       (bn2): BatchNorm2d(128, eps=1e-05, momentum=0.1, affine=True, track_running_stats=True)
[2025-08-22 13:02:23]     )
[2025-08-22 13:02:23]     (conv_block3): ConvBlock(
[2025-08-22 13:02:23]       (conv1): Conv2d(128, 256, kernel_size=(3, 3), stride=(1, 1), padding=(1, 1), bias=False)
[2025-08-22 13:02:23]       (conv2): Conv2d(256, 256, kernel_size=(3, 3), stride=(1, 1), padding=(1, 1), bias=False)
[2025-08-22 13:02:23]       (bn1): BatchNorm2d(256, eps=1e-05, momentum=0.1, affine=True, track_running_stats=True)
[2025-08-22 13:02:23]       (bn2): BatchNorm2d(256, eps=1e-05, momentum=0.1, affine=True, track_running_stats=True)
[2025-08-22 13:02:23]     )
[2025-08-22 13:02:23]     (conv_block4): ConvBlock(
[2025-08-22 13:02:23]       (conv1): Conv2d(256, 512, kernel_size=(3, 3), stride=(1, 1), padding=(1, 1), bias=False)
[2025-08-22 13:02:23]       (conv2): Conv2d(512, 512, kernel_size=(3, 3), stride=(1, 1), padding=(1, 1), bias=False)
[2025-08-22 13:02:23]       (bn1): BatchNorm2d(512, eps=1e-05, momentum=0.1, affine=True, track_running_stats=True)
[2025-08-22 13:02:23]       (bn2): BatchNorm2d(512, eps=1e-05, momentum=0.1, affine=True, track_running_stats=True)
[2025-08-22 13:02:23]     )
[2025-08-22 13:02:23]     (conv_block5): ConvBlock(
[2025-08-22 13:02:23]       (conv1): Conv2d(512, 1024, kernel_size=(3, 3), stride=(1, 1), padding=(1, 1), bias=False)
[2025-08-22 13:02:23]       (conv2): Conv2d(1024, 1024, kernel_size=(3, 3), stride=(1, 1), padding=(1, 1), bias=False)
[2025-08-22 13:02:23]       (bn1): BatchNorm2d(1024, eps=1e-05, momentum=0.1, affine=True, track_running_stats=True)
[2025-08-22 13:02:23]       (bn2): BatchNorm2d(1024, eps=1e-05, momentum=0.1, affine=True, track_running_stats=True)
[2025-08-22 13:02:23]     )
[2025-08-22 13:02:23]     (conv_block6): ConvBlock(
[2025-08-22 13:02:23]       (conv1): Conv2d(1024, 2048, kernel_size=(3, 3), stride=(1, 1), padding=(1, 1), bias=False)
[2025-08-22 13:02:23]       (conv2): Conv2d(2048, 2048, kernel_size=(3, 3), stride=(1, 1), padding=(1, 1), bias=False)
[2025-08-22 13:02:23]       (bn1): BatchNorm2d(2048, eps=1e-05, momentum=0.1, affine=True, track_running_stats=True)
[2025-08-22 13:02:23]       (bn2): BatchNorm2d(2048, eps=1e-05, momentum=0.1, affine=True, track_running_stats=True)
[2025-08-22 13:02:23]     )
[2025-08-22 13:02:23]     (fc1): Linear(in_features=2048, out_features=2048, bias=True)
[2025-08-22 13:02:23]     (fc_audioset): Linear(in_features=2048, out_features=527, bias=True)
[2025-08-22 13:02:23]   )
[2025-08-22 13:02:23] )
[2025-08-22 13:02:23] Using 3 GPUs!
